weights/mlp_weights_epoch_0.pth (torch_old, 32451 bytes, 6 tensors)

weight f4 [64, 10]
00000000: 7f08 5fbe 8c86 923e a47b e33b 802a 4fbd
00000010: bb30 4abd cd39 3a3c 938e 34be 5d83 28bd
00000020: 79de 09be 563c 88be b416 d73d 2869 07bd
00000030: 51d3 523d f60b 493d b099 9dbe bc74 cb3d
00000040: 0445 ddbd 4939 943d 0204 7abe cab2 ec3d
00000050: 1498 2d3d 06e0 a2bd 0400 8dbd 0792 d7bd
00000060: 07ba 423e eea1 dfbb 3865 733d dbe9 293d
00000070: 6a6b 66bd 3d7f 333e 44ce b2bd 6c79 a4be
00000080: c5cb bbbe 5936 5a3d c55e d3bc aee3 3b3d
00000090: 40e3 efbd 7918 4ebd a211 13be 403f b43c
000000a0: f5e3 dfbd 555e 643c 8a7b d63c 3d30 683d
000000b0: 52dd a9bc 9dfa 12be 746f e5bd c298 a83d
000000c0: 0d7e bdbd 3d0a 3dbe cf0f ecbe 6afa ab3e
000000d0: 9b04 d8be 6fb9 5b3e 050b 90be f260 b23d
000000e0: 464f 1c3d 1225 a9bd 7627 b63d 9a8a 883d
000000f0: 9b93 153e 5078 bfbd aca8 293c 4035 7b3d
00000100: a8fd b2bd 9041 8abc 1ffb 38be 69bc c0be
00000110: b0fe e63d 719b 6e3e 3371 103e 6b23 4a3e
00000120: 40ad dc3e a1ff 3a3e 49cf 383e 496a f5bd
00000130: 3b0c 07be 6aa2 9b3d 289e 83be c194 b3bd
00000140: ba34 b7bd 3cbb 74be 4d93 e0bd 660e 79bd
00000150: f172 a2be f626 8c3d 5d48 14bd 091a 52be
00000160: 393a 133e b2d8 7d3e 460f dabe 74ad 54be
00000170: ed24 2abe 1e13 273e 25a2 0bbe a3e0 03be
00000180: e70b 633c 4ac4 95bd a8f9 25bd 20e7 a13d
00000190: 80b7 cbbd 39d1 bcbd dfeb 543d 7a96 503d
000001a0: da5e c03c b7a2 db3d f35e 393c e60c a83c
000001b0: ff2e f03d 91d0 bc3d 0200 acbd 811a 61bc
000001c0: 3996 6ebb 8a5d c2be 597f 51bd 9f59 103e
000001d0: 73d7 1f3e 8a86 2e3e 3639 7e3d 5e6d 83bd
000001e0: ec7f 8dbe 1586 80bd d5b5 613e 7aa3 e23d
000001f0: f8cd e4bd 0063 33be 3a61 e83c 6dca 65bd
00000200: e0d1 113e 1869 8a3e c475 b5ba ce3d 8d3d
00000210: e4f6 b93c a2c6 99be 2709 23be 6d30 2d3e
00000220: 3840 5c3d 3972 cc3d 2be2 503c b66d 1d3e
00000230: 03e5 51be 27b7 bc3e 73ab a53e 6e87 60be
00000240: 40fe 993e e5bf 9c3e d638 48bd 4346 183d
00000250: 391e 55be e40d c63d 46ef a23e 7d70 383d
00000260: fb5f 0a3d a293 283d dc11 14be 85a0 cebd
00000270: eb79 563e 7211 47be 1a6e 6abe 2e91 0f3d
00000280: 82b8 83be fc67 6a3e 09e4 2a3e 2bd7 b3b9
00000290: 6f83 cbbd 26f4 fb3d 202d ffbd 1e70 43bd
000002a0: 05f4 c1bd e9ba 313d 6dd3 4d3e b640 99be
000002b0: b4db 0f3d b6ea 5cbd 6b84 92bc 7bc2 243e
000002c0: aa7f 1bbe 671a 7a3d c9a8 5f3d 24da 913e
000002d0: 58bf c33d be08 acbd 8530 13be 680c 03bc
000002e0: ee91 613e 62ee 1cbe 5bdb 83bd 9645 193e
000002f0: 389e 98be c119 5ebe d0f3 113e 4a50 48be
00000300: 02f1 14bd 0553 273d 1846 4abd 5b1e 673e
00000310: 5712 c8bb 77bc b53a 4561 a83d 4d5a c83d
00000320: 4ec9 dbbd 3fc7 9fbd 5fbb 10bc a71a 40be
00000330: 80e9 b0bd cb8d 863c 6905 07bc d067 8d3d
00000340: 6b63 b63c cee7 02be 3697 573d 4081 543d
00000350: d219 4dbe c752 8c3e 671c f4bd 1651 92bd
00000360: f984 693b 2c03 9fbd 5ac1 71bd 31d0 b4be
00000370: b279 4c3d cf47 533e ce89 0dbe 8a08 8ebd
00000380: 20ee a83d 5a64 213e cd5b bebd c71b 413d
00000390: 1567 01bd c320 a2be aaf6 8cbe b388 da3d
000003a0: 6f2d e53d 8655 3e3e 85e1 2e3d 2ae2 3d3e
000003b0: ccc9 59bd 2cbd 07bd 7a74 47bd 9d8c 15be
000003c0: ba54 66bd 154e a7bb 3ecd 303e 4e5d 0d3e
000003d0: 283f 753d 315e e73d 8859 733d 4e05 17be
000003e0: 7846 803e 7031 873c 7ec5 9cbd 32cb 77be
000003f0: 7aa6 9f3a 1a66 00bd 4845 74be 9355 263e
-0.21780585 0.28618276 0.0069422293 -0.05057764 -0.04936288 0.01136632 -0.17632513 -0.041140903
-0.13463773 -0.26608533 0.10502377 -0.03305927 0.05147106 0.049083672 -0.30781317 0.09934375
-0.10804179 0.07237489 -0.24415591 0.11557539 0.04238136 -0.07952885 -0.068847686 -0.105258994
0.19016276 -0.0068247234 0.0594227 0.041482788 -0.05625478 0.17529006 -0.08730748 -0.32123888
-0.366789 0.053274486 -0.025802026 0.04587143 -0.117132664 -0.050316308 -0.14362195 0.022002816
-0.10932151 0.013938506 0.026181955 0.05668663 -0.020735417 -0.14353414 -0.112028986 0.08232261
-0.09252558 -0.18460937 -0.4610581 0.33589488 -0.42191014 0.21457456 -0.28133407 0.08709897
0.03816154 -0.08259024 0.08894245 0.06667061 0.14607088 -0.0934912 0.010355156 0.06133008
-0.08739787 -0.016876966 -0.18064545 -0.37643746 0.112790465 0.23301484 0.14105682 0.19740073
0.4310093 0.18261577 0.18047823 -0.11983163 -0.1318826 0.075993374 -0.257066 -0.08768607
-0.08945604 -0.23899549 -0.109655954 -0.060804747 -0.31728318 0.06843369 -0.036201824 -0.20517744
0.14377679 0.24789694 -0.42589778 -0.20769292 -0.16615649 0.16315886 -0.13636072 -0.12878661
0.013857818 -0.0731283 -0.040521294 0.07905412 -0.09947109 -0.092195936 0.051982757 0.050924756
0.023482729 0.10724395 0.011314142 0.020513963 0.11727714 0.092194684 -0.08398439 -0.013739229
-0.0036405458 -0.3796199 -0.05114684 0.14096688 0.15609531 0.1704351 0.06206628 -0.064173445
-0.2763666 -0.06275574 0.2204202 0.11066337 -0.11172098 -0.17518234 0.028366674 -0.05610125
0.14240217 0.27033305 -0.0013844301 0.06896554 0.022700734 -0.30034357 -0.1592146 0.16913004
0.05377218 0.09982724 0.012749235 0.15373883 -0.20497517 0.36858484 0.32357368 -0.21926662
0.3007679 0.30615154 -0.048882328 0.03717638 -0.2081231 0.09670618 0.31823176 0.045029152
0.03378294 0.04115642 -0.14459938 -0.100892104 0.20944946 -0.19440249 -0.22893563 0.035050564
-0.25726706 0.2289123 0.16688551 -0.00034301853 -0.09937178 0.12302427 -0.12459779 -0.047714345
-0.09470371 0.043391142 0.20100184 -0.29932183 0.035121635 -0.053934775 -0.017885407 0.16089813
-0.15185419 0.061060335 0.054604325 0.2848674 0.0955798 -0.08400105 -0.14373977 -0.007998563
0.22028324 -0.15325311 -0.06438323 0.14967951 -0.2980821 -0.21689512 0.14253163 -0.19561878
-0.036362655 0.040850658 -0.049383253 0.22570173 -0.006105702 0.0013865371 0.08221678 0.097828485
-0.10731755 -0.07801675 -0.008833735 -0.18760167 -0.086382866 0.016425034 -0.008241036 0.06904566
0.022264203 -0.12783739 0.05263444 0.051881075 -0.20029381 0.27406904 -0.1191948 -0.07144372
0.0035632236 -0.07764277 -0.059022285 -0.35315087 0.049920745 0.20632862 -0.138221 -0.069352224
0.08248544 0.15760937 -0.09294853 0.04714563 -0.031592447 -0.3166562 -0.2753194 0.106706046
0.111903064 0.18587312 0.04269554 0.18543306 -0.053170964 -0.033139393 -0.048695065 -0.14604421
-0.056233145 -0.0051057437 0.17265794 0.13805124 0.059874684 0.112972625 0.059411556 -0.14748117
0.25053763 0.016503066 -0.07654856 -0.24198607 0.0012180351 -0.03134737 -0.23854554 0.16243581

bias f4 [64]
00000000: 56a3 d138 f4b6 d138 d8b6 d1b8 0000 0000
00000010: 0000 0000 f2b6 d1b8 e5b6 d1b8 f4b6 d1b8
00000020: 7bb6 d1b8 0000 0000 6eb1 d1b8 c4b5 d1b8
00000030: dbb6 d1b8 2fb6 d138 e2b6 d138 aeb2 d138
00000040: b0b6 d138 b8b4 d1b8 0000 0000 c7b6 d138
00000050: 0000 0000 4fae d138 c1b2 d138 efb6 d1b8
00000060: 72ab d138 95b6 d1b8 cab6 d1b8 09ab d138
00000070: c8b2 d1b8 aeb6 d1b8 0000 0000 0000 0000
00000080: ecb6 d1b8 f1b6 d1b8 e8b6 d1b8 0000 0000
00000090: 0000 0000 d4b5 d1b8 0000 0000 d3b6 d138
000000a0: eab6 d1b8 55b0 d1b8 0000 0000 c8b5 d1b8
000000b0: e6b6 d138 d6b6 d1b8 34b6 d1b8 0000 0000
000000c0: 0000 0000 fdb5 d138 91b6 d138 e4b5 d138
000000d0: bab6 d138 55ac d1b8 49b5 d1b8 e4b6 d138
000000e0: d7b6 d138 21b5 d138 0000 0000 a4b6 d1b8
000000f0: deb6 d138 53b6 d1b8 78b5 d138 d7b6 d1b8
9.99632e-05 9.999974e-05 -9.999954e-05 0.0 0.0 -9.999973e-05 -9.9999634e-05 -9.999974e-05
-9.999886e-05 0.0 -9.9989455e-05 -9.999753e-05 -9.999956e-05 9.999831e-05 9.999961e-05 9.999178e-05
9.999925e-05 -9.999558e-05 0.0 9.9999415e-05 0.0 9.998364e-05 9.999192e-05 -9.999971e-05
9.997831e-05 -9.999905e-05 -9.999944e-05 9.9977544e-05 -9.999197e-05 -9.999923e-05 0.0 0.0
-9.9999685e-05 -9.999972e-05 -9.9999656e-05 0.0 0.0 -9.999765e-05 0.0 9.99995e-05
-9.999967e-05 -9.998741e-05 0.0 -9.999756e-05 9.999964e-05 -9.9999525e-05 -9.9998346e-05 0.0
0.0 9.9997946e-05 9.999902e-05 9.9997764e-05 9.999932e-05 -9.997996e-05 -9.9996636e-05 9.999963e-05
9.999953e-05 9.9996345e-05 0.0 -9.999916e-05 9.999958e-05 -9.999857e-05 9.999698e-05 -9.999953e-05

weight f4 [64, 64]
00000000: 992a 8dbd b9c6 94bc 68b4 fe3c 0d83 7fbe
00000010: 4d69 903e d8a1 6bbe 009a e53d 5c6d b2bd
00000020: b07f 0f3e b8ce c23d 1685 323d 02ec 373c
00000030: 6ad6 473d b8aa bbbb eb5b 193e 3cb7 ec3b
00000040: f16a 853d 3b83 21be 0ebf 42bd 9cd1 ebbd
00000050: 2037 243e 9a12 4eba 330e 2a3e f1e4 413d
00000060: 2421 d7bd d9fb c1bc 24ad 523d 524f 03be
00000070: 0818 8f3d 8be3 5a3d b037 0c3d 718d 943d
00000080: bf1a bcbd 2db7 3ebe c82c 07be 4337 893e
00000090: 95c3 dfbd e986 233e ed79 973d 7abf 5cbe
000000a0: 4e6c 093d 44dc 563e b672 7cbe d7d9 54be
000000b0: 521c 50be 1621 ed3d 0e3e bbba d280 ab3d
000000c0: 7bd1 ee3c 2053 2fbe 0433 3ebd 7d39 0f3e
000000d0: 52c2 8d3d 56e4 c8bb 3a20 233d 646e 00be
000000e0: 6e23 aebd 6813 91bd 4083 93bc aa3a de3c
000000f0: f52c ab3e 627e 423a 826a a63d aca9 24bc
00000100: d350 1c3d 6190 00be ea04 173e 709b da3d
00000110: dbad ee3d 806e 6f3e 5e6c 153e f9df eabc
00000120: 858f a6bb 4ff3 81bd 64d0 9ebe 9a82 0f3e
00000130: b537 243d 504f 7dbd bb42 be3d 3754 203d
00000140: 7912 a4bd 9992 2f3e 47a3 0abe 546f 76bc
00000150: e4c0 b1bd f620 9d3b be47 1f3d 6583 353e
00000160: 844f ccbb 2f7e e3bd 25c7 3cbd e593 183e
00000170: 66be 8e3d ce5c c03d 576b 09bd 840f ab3d
00000180: b7d8 433e edfa ebbc 2dec 193e 649f b3bd
00000190: 128c afbd 4f17 58bd 4339 353d c651 f93d
000001a0: 543b 743d 567b db3c c68c 6c3c dc9d d9bc
000001b0: 103f 9abd 105e a8ba c478 85bd 3e79 2abd
000001c0: 8cf9 433d 4b85 8cbd cb9c 7e3d c1cd d0bd
000001d0: 8f9c b93d 13e4 a7bc 5e45 4bbe e9df 0ebd
000001e0: f954 103c da5e 5bbe 79d7 1d3e 811e c33a
000001f0: f29a 8b3d 0ccf 83bd 37d7 1cbc 1fbf 00be
00000200: c7d6 2cbd 122f 0a3e 906a 25bd 6ddd cfbb
00000210: 1b7f fdbd f828 8d3d 4888 9a3e 2220 693b
00000220: 08af 4f3e 97a7 97be ecd9 aebc f5e1 dbbc
00000230: b7d6 c8bc 3f3c f5bd ba57 d2bc 145b 28ba
00000240: a215 063e fa03 a43e f15c 813d aee8 e83d
00000250: 3360 4f3e 1fa2 94bb 606c a4bd 9718 3cbc
00000260: 7f20 063e 6e63 43be 4eb1 9cbd 5d66 14be
00000270: 4d68 4f3d 65ab 313e c7bc 223e ad0a 01bd
00000280: e484 d43c 4509 9a3c c92e 07be 8ed2 423d
00000290: acfc 85be e322 a53d 40dd 6ebd 3add 6a3d
000002a0: 5dfb 2dbd 37bc f23d 9a57 183d 0bc5 86be
000002b0: 3977 f43b a903 0b3c 7c4f c13c d64c e0bd
000002c0: 427a d4bd bc03 25bd 29a3 11be 8915 cebd
000002d0: 9437 3dbc e259 aa3b b97f 253d 1f0f af3c
000002e0: c4db c83b 8504 383c 62c7 b63d 7704 a4bd
000002f0: e923 243d 7437 0ebc 71c7 523c b669 5a3d
00000300: de7f 643d 4600 02be 0597 3fbe b771 ffbd
00000310: d740 b33d 4cf7 363e 5680 353b a8a2 413e
00000320: e81c 6a3d 6f5f 903d c862 57bb a178 343e
00000330: e657 31be 587d adbd 6e9f 97bc 838d a2bd
00000340: d0e5 803d 6aee 63be 5c78 bc3d 965f 403d
00000350: bb4d e03d e0a7 073d fef4 db3d f7ef 1e3e
00000360: cf86 713c 0b68 953d e5c6 c2bc 8778 94bd
00000370: 60f2 18bb 0ce1 4a3d cd06 ccbd 8ac2 16be
00000380: df04 3c3d e87a 8d3d 94b3 993c 40f1 433e
00000390: c6da 4c3e a8c2 e53c 5ba7 7fbc f294 2c3e
000003a0: c739 4c3e b124 753e c34e d5bd 27ab 8bbd
000003b0: 6718 81be 92cf 22bd 9713 c53d 12e7 24bd
000003c0: 5b75 77bd 997d 643c 2923 a7bd 613f bcbd
000003d0: 4d20 b6bd 6607 323b 33e7 28bd 736c 46be
000003e0: b606 1c3e f505 56be dac0 813d 4c06 0a3d
000003f0: 18b4 f4bd 8c65 c9bd cc3f 32be 35c4 4a3d
-0.068928905 -0.018161165 0.031091884 -0.24952336 0.28205338 -0.23010957 0.11211014 -0.08712265
0.14013553 0.09512085 0.043583952 0.011225702 0.048788466 -0.0057271384 0.1497647 0.0072239917
0.06514538 -0.15772717 -0.047545485 -0.11514589 0.16036654 -0.0007861048 0.16606979 0.047337476
-0.10504368 -0.02367966 0.05143465 -0.12823227 0.069870055 0.053439658 0.034232795 0.0725354
-0.09184789 -0.18624564 -0.13200676 0.26799974 -0.10925976 0.15969433 0.07396302 -0.21557418
0.033550553 0.20982462 -0.24653134 -0.20786224 -0.20323303 0.11578576 -0.0014285462 0.0837418
0.029152622 -0.17121553 -0.04643537 0.13986774 0.06921829 -0.0061307354 0.039825656 -0.1254211
-0.085028514 -0.070837796 -0.01800692 0.027127583 0.33432737 0.0007419345 0.081257835 -0.010050219
0.038163017 -0.12555076 0.14747968 0.106741786 0.11654254 0.23381996 0.1459212 -0.028671252
-0.005083027 -0.063452356 -0.31018364 0.14014664 0.04009219 -0.061843216 0.092900716 0.039142814
-0.08011336 0.17145766 -0.13538848 -0.015041191 -0.08679369 0.004795189 0.038886778 0.17725904
-0.006235065 -0.11108052 -0.046088357 0.14900167 0.06969909 0.09392701 -0.033549633 0.08352569
0.19125639 -0.028806174 0.150315 -0.08770636 -0.08571638 -0.052756604 0.044244062 0.121738
0.059626892 0.02679221 0.01443786 -0.026564531 -0.075315595 -0.0012845416 -0.06517175 -0.04161953
0.04784541 -0.06861361 0.06216125 -0.101954944 0.09063064 -0.020494496 -0.1985068 -0.034881506
0.008809322 -0.21422902 0.15414228 0.001488641 0.06816663 -0.064359754 -0.009572796 -0.12572907
-0.042197015 0.13494518 -0.04038483 -0.0063435347 -0.12377759 0.0689258 0.301821 0.0035572131
0.20281613 -0.29620048 -0.021344148 -0.026841143 -0.024516447 -0.11974382 -0.025676597 -0.0006422263
0.1309419 0.32034284 0.06316555 0.11372505 0.20251541 -0.004535928 -0.080284834 -0.011480472
0.13098334 -0.19080898 -0.07651006 -0.14492173 0.05063658 0.17350538 0.15892325 -0.03150432
0.025942273 0.018803248 -0.13201441 0.04756408 -0.26169336 0.08063295 -0.05831647 0.057339884
-0.042476047 0.118523054 0.03719292 -0.26322207 0.0074605015 0.008484759 0.023597471 -0.10952155
-0.10374881 -0.040286765 -0.14222397 -0.10062701 -0.011548895 0.005198703 0.04040501 0.021369515
0.0061297137 0.011231546 0.08924748 -0.08008664 0.04007331 -0.008680213 0.012864933 0.05332347
0.055786006 -0.12695417 -0.18709953 -0.12472861 0.087526016 0.17867774 0.0027694902 0.18909705
0.057156473 0.070494525 -0.0032865275 0.17624141 -0.17318687 -0.08471173 -0.01850864 -0.079371475
0.06293833 -0.22258916 0.09202644 0.046966158 0.10952326 0.033119082 0.10740088 0.15521227
0.0147416135 0.07295235 -0.02377648 -0.07249551 -0.0023337826 0.049531028 -0.09962235 -0.14722648
0.045903083 0.06908208 0.018762387 0.19134998 0.2000533 0.02804692 -0.0156038655 0.16853693
0.19943915 0.23939778 -0.10415413 -0.06819754 -0.2521393 -0.039748736 0.09622877 -0.04025943
-0.060414653 0.01394596 -0.08161003 -0.09191776 -0.0889288 0.0027165054 -0.041236114 -0.19377308
0.15236935 -0.2090071 0.06335612 0.03369741 -0.11948413 -0.09833822 -0.17407149 0.049503524

bias f4 [64]
00000000: d5b6 d1b8 f0b6 d1b8 f0b6 d1b8 45b0 d138
00000010: 0000 0000 0000 0000 fcb6 d138 a6b6 d138
00000020: f9b6 d1b8 a078 d1b8 0000 0000 eeb6 d1b8
00000030: ffb6 d138 ceb6 d1b8 d7b6 d138 c7b6 d1b8
00000040: 0000 0000 e3b6 d138 0000 0000 0000 0000
00000050: b0b4 d1b8 0000 0000 0000 0000 c8b6 d1b8
00000060: c7b6 d1b8 b3b6 d138 b7b6 d1b8 0000 0000
00000070: e3a9 d1b8 68b4 d1b8 bcb2 d138 50b4 d1b8
00000080: f9b6 d138 e0b6 d138 0ab6 d1b8 0000 0000
00000090: 0000 0000 dcb6 d138 9eb6 d1b8 dfb6 d138
000000a0: 89b6 d1b8 30b5 d1b8 7bb6 d1b8 0000 0000
000000b0: 0000 0000 e5b6 d1b8 94b6 d1b8 e6b6 d138
000000c0: b6b6 d138 2bb6 d1b8 84b5 d1b8 f3b6 d138
000000d0: 41b6 d138 c4b6 d138 66b3 d138 fab6 d1b8
000000e0: 0000 0000 c6b6 d1b8 01b7 d138 d2b6 d138
000000f0: 01b7 d1b8 d1b6 d1b8 d6af d138 d9b6 d1b8
-9.999952e-05 -9.9999714e-05 -9.9999714e-05 9.9987294e-05 0.0 0.0 9.99998e-05 9.9999175e-05
-9.999978e-05 -9.988365e-05 0.0 -9.99997e-05 9.999982e-05 -9.9999466e-05 9.999953e-05 -9.9999415e-05
0.0 9.999962e-05 0.0 0.0 -9.999552e-05 0.0 0.0 -9.999942e-05
-9.9999415e-05 9.999927e-05 -9.99993e-05 0.0 -9.9975405e-05 -9.9995e-05 9.9991885e-05 -9.9994824e-05
9.999978e-05 9.99996e-05 -9.999804e-05 0.0 0.0 9.999957e-05 -9.999912e-05 9.999959e-05
-9.9998964e-05 -9.9996454e-05 -9.999886e-05 0.0 0.0 -9.9999634e-05 -9.9999044e-05 9.999964e-05
9.999929e-05 -9.999828e-05 -9.9997065e-05 9.9999736e-05 9.999844e-05 9.999939e-05 9.999312e-05 -9.999979e-05
0.0 -9.999941e-05 9.999984e-05 9.9999495e-05 -9.999984e-05 -9.999949e-05 9.9986486e-05 -9.999955e-05

weight f4 [10, 64]
00000000: e87f 20be 07d0 13be f02e ecbd 3bfc 593e
00000010: 6973 1fbe 02c0 25be 5465 0e3e 4d4c 853e
00000020: c0f5 37be db08 f2bc b06c be3e 2255 24bd
00000030: bd30 663e f33e 0fbe d790 c13d cf48 61bd
00000040: 7864 24be 9fd1 fe3c 0dc2 be3c 5a8b 2b3c
00000050: c4df b5bb ef94 0abc 707a 043e 8432 39be
00000060: 90d1 b2bd 57ce ad3d cd89 abbd 77c6 0a3e
00000070: 3705 e9bc 6c6a 19bd aeba 883e 0746 1fbd
00000080: 5f29 253e 03bc 0b3e 1704 a7bc e41c 8b3d
00000090: 820c afbd ccde 143e dd67 213d e542 423e
000000a0: f132 31be a0a5 b13d 1706 7c3d ef49 e43d
000000b0: 2ee1 7fbd c226 bebd 3817 e4bc f97e db3d
000000c0: ed25 533e cfe7 2d3d 8dd9 f9bd e110 753e
000000d0: 0919 08bd 5834 23bd 30f9 fd3c 24eb 0abe
000000e0: 8b0c afbc 49a3 3abe 5ae2 c03d 42ad 483e
000000f0: 7c9d 83be 1099 71be e4bf 823d b9ec 33be
00000100: 4d9a 973d 6f8d 123c 78a3 b7bc 894f 10be
00000110: 8600 733e ff15 55bd 3a44 803e 4e9e fe3d
00000120: 8720 0a3c 498d 84bc 33a6 b3bd 4252 76be
00000130: 73a3 e13d a79f 6bbd 24b0 32be 2742 343e
00000140: 45e4 2f3e 0956 2abe 8d3e 903e 0eb9 38be
00000150: fdf4 8a3d 1a70 fa3c 7e74 fc3d 895c 573e
00000160: 2bfe 0fbc ffed d9bc a6d7 18bc f59e 96be
00000170: 12da 7b3d c280 653e a7d7 a7bc ca0c 9c3e
00000180: adb2 903e d676 173e 26a7 a33e 9a2e 023e
00000190: 5072 c33e bb9b 963c 4786 65be 9906 7d3d
000001a0: 7c8f cbbd 9bef b8bd e7c4 7b3d d9b2 d2bc
000001b0: 6825 1e3e a52c 7bbd b0e4 bc3e 4a37 df3c
000001c0: 7909 b23e 33fd c8be 9a89 c63d dcc8 053e
000001d0: 107c 90bd 2368 d3bd 4f71 c1bc cf7b 1ebe
000001e0: 95c7 cd3d 2b5c 7d3e a8b5 bebc 7fd7 7abe
000001f0: 7e8e 143c 839d eabd 3199 643e 977d 6fbd
00000200: f53c 09be 4ba4 fdbc edac 8e3d e76c d5bc
00000210: 78c1 b83d b171 6d3e a267 14be a31e c23d
00000220: 88a9 763d 6262 82be 1300 90bd ed52 ee3d
00000230: fbf2 5a3e bd8b 8d3e d7d3 273e f27f 2ebe
00000240: 596a 0fbe 29e7 afbd 9d97 bd3d 6750 93be
00000250: 6b7b 803d 627c fcbd e422 aebd 32cf d93d
00000260: 8ea7 21bd b84a ddbd bb04 98bc ec6d 1e3e
00000270: bf3d 753d ea72 b23d d5a0 fd3d a61b 383e
00000280: 904c 85be 7dfa 11be b54a ea39 9e03 7d3c
00000290: f516 343e 7500 ca3d 8305 a93d af66 edbd
000002a0: e47b 87be b190 403d 1a8e 77bd b9da e3bc
000002b0: 0999 9f3d 51c7 76be 5909 aabd 8e4e 193e
000002c0: 1537 843d 035d 303e b4e5 a7bd 8d99 5fbe
000002d0: 5632 81bd f27e c7bd 4469 303e 38e8 f73d
000002e0: d2e7 aebd dffa f4bc fcfa 21bd d65b 85be
000002f0: 6e24 f63d 3836 b6ba 3307 f3bd 68e0 87be
00000300: df83 093e 01d9 a23d f789 2e3e 49ee 813e
00000310: 62d7 4abe 4a97 883e 6a4d 27be 4080 ecbc
00000320: fc4b f23d e9ab 5e3d 034f 373d dd04 bf3e
00000330: 93d4 92bd 56e1 f23d e9d8 53bd 03ac bc3c
00000340: 5e34 a2be 8eec 98be 3e7f 4d3d 8380 b03d
00000350: d433 243d 3280 f23d f847 503c b685 6cbe
00000360: bd77 04bc c019 d6bb 448e 56bd d6d8 363e
00000370: 3336 51bd 51f7 71bd a2bf d23e 9c04 52bd
00000380: 2b08 99bd 5c49 cebd f0f2 d83b e657 8ebd
00000390: afbb 853d 334e 40be 9030 203e 3288 a93d
000003a0: d008 813c 5428 ad3d 7ef4 153e 2292 0f3e
000003b0: ce16 bcbd 46ac 853e 41fa a73d dd98 9fbd
000003c0: bda5 0c3e e17c 8cbe a1d7 85be 9fad 5dbd
000003d0: bb85 74bd 528b 59be 45d1 403d a023 283e
000003e0: 2069 8ebd dfef eabb 5972 45be 89b6 363d
000003f0: f38d 133e 222e b83c 7aa3 343e d22a 5f3e
-0.15673792 -0.14434825 -0.1153239 0.21287625 -0.15571369 -0.16186526 0.13905841 0.26034775
-0.1796484 -0.029545238 0.37192297 -0.04012025 0.2247953 -0.13988857 0.09451454 -0.055001076
-0.16053951 0.031105815 0.02328589 0.010470236 -0.0055503566 -0.00845836 0.12937331 -0.18085676
-0.08731377 0.08486622 -0.08375893 0.13552271 -0.02844487 -0.037455007 0.26704925 -0.038885143
0.16129063 0.1364594 -0.020387692 0.0679262 -0.085473076 0.14538115 0.039405692 0.1897083
-0.17304589 0.086741686 0.061529245 0.11146914 -0.062470607 -0.09284736 -0.027843103 0.107175775
0.20619936 0.042457398 -0.12199698 0.2393222 -0.033227 -0.03984484 0.03100261 -0.13566262
-0.021368286 -0.18226351 0.09418173 0.19597343 -0.2570609 -0.23593545 0.063842565 -0.17570771
0.074024774 0.008944853 -0.022416815 -0.1409284 0.23730668 -0.05202293 0.25052053 0.12432538
0.008430607 -0.016180651 -0.08771934 -0.24054816 0.110175036 -0.057525303 -0.17450005 0.1760336
0.17176922 -0.16634382 0.28172722 -0.18039343 0.06785009 0.030571032 0.123269066 0.21031393
-0.008788626 -0.026602743 -0.009328758 -0.2941815 0.061487265 0.22412398 -0.020488573 0.30478507
0.2826132 0.14791426 0.31963462 0.1271309 0.3817315 0.018384805 -0.22414504 0.06177387
-0.09939477 -0.09030076 0.061467078 -0.025720047 0.15443957 -0.061321873 0.36893225 0.027248044
0.34772852 -0.39255676 0.09694214 0.13064903 -0.07054913 -0.10322597 -0.0236136 -0.15476917
0.10047833 0.2474219 -0.02327998 -0.24496268 0.009067176 -0.11455824 0.22324063 -0.05846938
-0.1340216 -0.03096213 0.06966577 -0.026052905 0.09021276 0.23187901 -0.14492658 0.094785
0.06022027 -0.25465685 -0.07031264 0.116369106 0.21381752 0.27645674 0.16389404 -0.17040995
-0.14005412 -0.08589012 0.092574336 -0.2877228 0.0627354 -0.12328412 -0.085027486 0.106352225
-0.039466433 -0.10805267 -0.018556943 0.1547162 0.05987334 0.08713324 0.12384192 0.17979297
-0.26034975 -0.1425571 0.0004468762 0.015442757 0.17586882 0.098633684 0.082530044 -0.11591851
-0.2646171 0.04701299 -0.060438253 -0.027814256 0.07792861 -0.2409947 -0.08302564 0.14971372
0.064558186 0.17222981 -0.08198109 -0.21835919 -0.06308429 -0.0974101 0.17227656 0.12104839
-0.0854031 -0.02990478 -0.039545998 -0.26046628 0.12018667 -0.0013901656 -0.118666075 -0.26538396
0.13429211 0.079515465 0.17044817 0.2537711 -0.19808725 0.26677924 -0.16338125 -0.028869748
0.11830899 0.054363165 0.044753086 0.37308398 -0.071694516 0.11859386 -0.051720534 0.02303124
-0.31680578 -0.29867977 0.050170176 0.08618262 0.04008849 0.118408576 0.012712471 -0.23097882
-0.008085188 -0.0065338314 -0.05238177 0.17856154 -0.05107708 -0.05907375 0.4116183 -0.051273927
-0.07472261 -0.10072586 0.0066207573 -0.06950359 0.065299384 -0.1877983 0.15643525 0.0827793
0.015751272 0.084549576 0.14644048 0.14020589 -0.09184037 0.26107997 0.08202029 -0.07792828
0.13735099 -0.27439025 -0.26141074 -0.054120656 -0.059697848 -0.21244553 0.047074575 0.1641984
-0.06953645 -0.007169708 -0.19281901 0.044607673 0.14409618 0.022482935 0.17640486 0.21793678

bias f4 [10]
00000000: 11b7 d138 01b6 d138 e8b6 d1b8 09b7 d1b8
00000010: 56b1 d1b8 2eb6 d1b8 65b6 d1b8 65b6 d1b8
00000020: dab6 d1b8 c5b6 d1b8
9.9999954e-05 9.9997975e-05 -9.9999656e-05 -9.9999896e-05 -9.998928e-05 -9.99983e-05 -9.99987e-05 -9.99987e-05
-9.9999554e-05 -9.99994e-05
